chatbot_model.pth (torch, 47133 bytes, 6 tensors)

l1.weight f4 [32, 242]
0	0x3e174de3	0.14775805
1	0x3e1f3b10	0.15549874
2	0x3d9a9528	0.075479805
3	0x3e575686	0.210291
4	0x3d532fbb	0.05155919
5	0x3ec0817a	0.37598783
6	0x3e44b6e6	0.19210395
7	0x3c825c18	0.015913054
8	0xbcd0e578	-0.025500044
9	0x3d957840	0.072983265
10	0x3e919c39	0.284395
11	0x3cc523fc	0.02406501
12	0x3ecdd72b	0.40203223
13	0x3d2339bc	0.03984998
14	0xbe487773	-0.19576816
15	0x3e5e6560	0.21718359
16	0xbd9599b8	-0.0730471
17	0xbd69195c	-0.05690895
18	0x3ec4d352	0.38442475
19	0xbde7364b	-0.112896524
20	0x3e8054db	0.2506474
21	0xbe3b2fb6	-0.18279919
22	0x3cbfb122	0.023399893
23	0x3dbd0b15	0.09230629
24	0x3d838137	0.0642113
25	0xbe2caba0	-0.16862345
26	0x3e893446	0.26797694
27	0x3dc7c5ba	0.0975451
28	0x3ddfa1c3	0.109195255
29	0x3e1ed5f5	0.15511306
30	0xbe72ccef	-0.23710988
31	0xbd0a04f3	-0.033696126
32	0x3dbf79f7	0.09349435
33	0xbec5c950	-0.38630152
34	0x3c6d2d18	0.014476083
35	0x3f4336e2	0.7625562
36	0xbe244faf	-0.16046022
37	0x3f2d3f3b	0.6767461
38	0xbeedea08	-0.46467614
39	0x3dc727b2	0.09724368
40	0xb9e8492b	-0.00044305003
41	0x3e38c2e5	0.18043096
42	0x3c73b543	0.014874759
43	0x3e5e7f05	0.21728142
44	0x3dd41e2e	0.10357319
45	0xbd03de8b	-0.032194655
46	0x3ec33c24	0.3813182
47	0x3e0e535a	0.13898984
48	0xbe8c6b4c	-0.2742561
49	0x3c97f142	0.018547658
50	0x3f426a5a	0.7594353
51	0xbecafd9e	-0.3964662
52	0x3e8003c7	0.25002882
53	0x3f3030d8	0.6882453
54	0x3ee58274	0.4482609
55	0xbe017cc6	-0.12645254
56	0x3c9b0e12	0.018927608
57	0xbea88540	-0.32914162
58	0xbe3b7f59	-0.18310298
59	0xbeba3e87	-0.3637583
60	0xbe17972a	-0.14803758
61	0x3de5c718	0.11219615
62	0xbda59dab	-0.080867134
63	0x3e721aef	0.23643087
64	0x3e0c2172	0.13684633
65	0x3e14ec5e	0.14543292
66	0x3f1da62f	0.615817
67	0x3c87db5f	0.016584096
68	0xbe537d7e	-0.2065334
69	0x3eb2e659	0.34941366
70	0x3ee67af2	0.45015675
71	0x3dcd1dac	0.10015425
72	0xbc461377	-0.012089602
73	0x3e560834	0.20901567
74	0xbe1eecec	-0.15520066
75	0xbcf5e592	-0.030016694
76	0x3e838ce0	0.25693417
77	0x3f43813f	0.7636909
78	0xbea4707c	-0.3211707
79	0x3e308e3e	0.17241761
80	0x3e368fa9	0.1782824
81	0x3f15e2c7	0.5854916
82	0x3e4332df	0.19062375
83	0xbf1c2df3	-0.6100761
84	0xbf1197d0	-0.5687227
85	0x3db9b5a9	0.09067852
86	0x3e0c309a	0.13690415
87	0xbd7a29a7	-0.06107488
88	0xbd93b887	-0.0721293
89	0x3ec07f0f	0.37596938
90	0x3ea91c2e	0.33029312
91	0xbda1a526	-0.07892828
92	0x3e58dabd	0.21177192
93	0xbe4de0e3	-0.20105319
94	0x3df60793	0.120131634
95	0xbeb769fe	-0.35823053
96	0xbecaf5c8	-0.3964064
97	0xbe9bf1ca	-0.30457908
98	0xbecadcd9	-0.39621618
99	0x3b41c5ae	0.002956729
100	0x3e44ee11	0.1923144
101	0x3db99088	0.0906077
102	0xbdeccbe5	-0.11562327
103	0x3d4aee76	0.04954382
104	0x3e2313b7	0.1592549
105	0x3dca893f	0.09889459
106	0x3dff9148	0.12478882
107	0x3ca5862f	0.020205585
108	0x3d53ac24	0.051677838
109	0xbed55c28	-0.41671872
110	0xbe625ae1	-0.2210498
111	0x3f0885fe	0.53329456
112	0xbecab397	-0.3959014
113	0x3d3f9da8	0.046781212
114	0x3e531de8	0.20616877
115	0xbe325bcd	-0.17417832
116	0x3e2cbc01	0.16868593
117	0x3e174d74	0.1477564
118	0x3edb8402	0.4287415
119	0x3d07b434	0.03313084
120	0xbeb12744	-0.3460027
121	0xbe70a273	-0.2349947
122	0xbd8e75aa	-0.069560364
123	0x3c99af6a	0.018760402
124	0xbdc9fe79	-0.0986299
125	0x3e1ec921	0.15506412
126	0xbea761ad	-0.32691708
127	0xbeabc29e	-0.3354692
128	0xbe936a1a	-0.28791887
129	0xbe33bd89	-0.1755277
130	0x3e9d54a1	0.3072863
131	0x3e66b42c	0.22529668
132	0x3eb72930	0.3577361
133	0xbcc5ed5e	-0.024161037
134	0xbe4aecb9	-0.19816865
135	0xbcf4eb6d	-0.029897416
136	0x3bdd4ef7	0.006753798
137	0xbd3a4e6e	-0.045484953
138	0xbdd2f763	-0.103010915
139	0xbd825823	-0.06364467
140	0x3cc3b452	0.023889694
141	0xbe27405c	-0.16333145
142	0xbe65c437	-0.22438131
143	0xbea3ca34	-0.31990206
144	0xbdf5e85a	-0.12007208
145	0x3d5d8ce7	0.054089453
146	0x3e83fcf5	0.25778928
147	0x3d7cb203	0.061693203
148	0xbc8c21e1	-0.017105998
149	0x3f0b7b0a	0.5448462
150	0xbd251831	-0.040306274
151	0xbd3ecc65	-0.046581645
152	0xbdde5f78	-0.10858053
153	0x3e47c773	0.19509678
154	0xbd8fe2d3	-0.07025685
155	0xbe427b1e	-0.18992278
156	0x3ed345d1	0.41264203
157	0x3ef8629f	0.48512742
158	0xbe757a19	-0.23972358
159	0x3ea8c09b	0.32959446
160	0x3e6a7f12	0.22900036
161	0xbea1d401	-0.3160706
162	0xbe8e74cc	-0.27823484
163	0xbec1c395	-0.3784453
164	0xbe9b7a1d	-0.30366603
165	0xbde4aebc	-0.111661404
166	0xbe72cd5e	-0.23711154
167	0xbdbdab89	-0.09261233
168	0x3ea09f9f	0.3137178
169	0xbecb14c5	-0.39664283
170	0xbded26b5	-0.115796484
171	0x3eec4af2	0.4615093
172	0xbecae970	-0.39631224
173	0x3d90dd6b	0.07073482
174	0x3ea37fe7	0.3193352
175	0xbd8c2ab8	-0.068440855
176	0x3c85ad81	0.016318085
177	0x3e866728	0.26250577
178	0x3d4cab63	0.049968135
179	0x3e49b79c	0.19698948
180	0xbecae236	-0.3962571
181	0x3e9de7f9	0.30841044
182	0x3e5c4679	0.21511258
183	0xbe2a440d	-0.16627522
184	0xbe10b1bb	-0.14130299
185	0xbeac587e	-0.33661264
186	0xbecc0c6a	-0.3985322
187	0xbec7720e	-0.38954204
188	0xbe275eab	-0.16344707
189	0x3e2f4256	0.17115149
190	0x3d82eff2	0.06393422
191	0x3e661477	0.22468744
192	0xbe5a6b7c	-0.21330065
193	0xbe3cf04f	-0.18451045
194	0xbc860e7e	-0.016364332
195	0xbe13939e	-0.1441178
196	0xbe487baa	-0.19578424
197	0xbe1c6dfe	-0.15276334
198	0xbdc508af	-0.09620797
199	0xbef9edb3	-0.48814163
200	0xbd92c20e	-0.07165919
201	0xbe202a07	-0.15641032
202	0xbe5dd3bc	-0.21662802
203	0xbe7e050e	-0.24806616
204	0xbe5308b8	-0.20608795
205	0x3e816e1e	0.25279325
206	0x3dd6487b	0.10463043
207	0xbec8fcc8	-0.39255357
208	0x3e962b88	0.29330087
209	0x3e8d5a65	0.27608028
210	0x3eabcee9	0.33556297
211	0x3ea06bc3	0.31332216
212	0xbe86766f	-0.26262233
213	0xbecafb6e	-0.3964495
214	0x3e4c7e24	0.19969994
215	0xbdb19e37	-0.08672755
216	0xbc27c240	-0.010239184
217	0xbea7c551	-0.32767728
218	0x3e6a1642	0.22860053
219	0x3f6175a2	0.8807012
220	0xbe1e0a64	-0.15433651
221	0x3e56deda	0.20983449
222	0xbea7a97d	-0.32746497
223	0xbe3dfbf9	-0.18553151
224	0x3d5cc5ac	0.053899452
225	0x3e7978ea	0.24362531
226	0xbe1895b1	-0.14900853
227	0x3e4d7b61	0.20066597
228	0x3d94230e	0.07233249
229	0x3dc46055	0.095886864
230	0xbea8bccb	-0.32956538
231	0x3e072acb	0.13199918
232	0x3e7aa0fc	0.24475473
233	0xbddd10b1	-0.10794199
234	0x3e997907	0.2997515
235	0x3c32e91e	0.010919837
236	0xbd8ed8aa	-0.06974919
237	0xbe69a571	-0.22817017
238	0xbe61a92d	-0.22037192
239	0x3e1e045e	0.15431353
240	0x3e001d01	0.12511064
241	0x3e855b10	0.26046038
242	0xbdcd2f70	-0.100188136
243	0xbe6979ce	-0.22800371
244	0xbda376c8	-0.0798164
245	0x3e09f7cd	0.13473435
246	0xbd068189	-0.032838378
247	0x3e830a9d	0.25594035
248	0xbbb245d0	-0.005440451
249	0x3ee7963e	0.45231813
250	0xbd1363a9	-0.035983715
251	0xbd4ebb60	-0.050471663
252	0x3ebe0f0d	0.37120858
253	0xbd9f403e	-0.07775925
254	0x3e004f7f	0.12530325
255	0xbeca25a2	-0.39481837

l1.bias f4 [32]
0	0x3ecaec7b	0.39633545
1	0x3ee200ce	0.4414124
2	0x3eb38a5c	0.35066497
3	0x3f005645	0.50131637
4	0x3eb01a00	0.34394836
5	0x3ef11516	0.470864
6	0x3f11cfbd	0.5695761
7	0x3ea7b426	0.3275463
8	0x3e8aa5f7	0.27079746
9	0x3eebd2be	0.4605922
10	0x3e8c5e3b	0.27415642
11	0x3f00a7e8	0.50256205
12	0x3eeb998e	0.4601559
13	0x3ea96885	0.33087555
14	0x3ecd690a	0.401192
15	0x3ed530b1	0.4163871
16	0x3f251675	0.6448739
17	0xbe5ba40b	-0.21449296
18	0x3edb35d2	0.428145
19	0x3eda8c7f	0.42685315
20	0x3f06079d	0.52355367
21	0x3ec49930	0.38398123
22	0x3eb5f05a	0.35534936
23	0x3ec36db4	0.38169634
24	0x3ec90bb0	0.3926673
25	0x3eb93990	0.3617673
26	0x3ef02909	0.46906307
27	0x3f10d0db	0.5656869
28	0x3eb3253b	0.34989342
29	0x3e6963d9	0.22791995
30	0x3eb5a75c	0.35479248
31	0x3ee41bc7	0.44552442

l2.weight f4 [32, 32]
0	0x3f9059f3	1.127745
1	0xbe8db824	-0.2767955
2	0x3d3eb5f3	0.04656024
3	0x3f3213e4	0.695616
4	0xbf28e8fa	-0.65980494
5	0x3eef8758	0.46782947
6	0x3e1a322b	0.150582
7	0x3e9bae16	0.30406255
8	0x3f3d9138	0.7404971
9	0xbea48720	-0.32134342
10	0xbe975ec9	-0.29564503
11	0x3ecf8704	0.40532696
12	0x3e0f2c37	0.1398171
13	0x3f5aaa2b	0.85415906
14	0xbec03308	-0.37538934
15	0x3eb3b2e0	0.35097408
16	0xbf53064d	-0.8243149
17	0x3d931354	0.07181421
18	0x3f6499ae	0.89296997
19	0x3f1251d7	0.5715613
20	0x3f1c53f8	0.61065626
21	0xbf49876b	-0.78722256
22	0x3eb59852	0.35467774
23	0x3ca16ac1	0.019704225
24	0x3f2b06c1	0.6680718
25	0x3f825f7f	1.0185393
26	0x3e95e2c4	0.2927457
27	0x3e99127f	0.29896924
28	0x3f2b6f91	0.6696711
29	0x3ef32fbe	0.47497362
30	0x3d0e5bb7	0.034755435
31	0x3c854092	0.016266141
32	0x3dcd9704	0.100385696
33	0x3e06d107	0.13165675
34	0x3f2849e5	0.65737754
35	0x3f7f47c6	0.9971889
36	0x3f0a0b16	0.53923166
37	0x3ea0ddb9	0.3141916
38	0x3e9542d2	0.29152542
39	0x3eb5e18f	0.3552365
40	0x3f36d785	0.71422607
41	0x3e199cfb	0.1500129
42	0xbd874e2f	-0.06606709
43	0x3fb07010	1.3784199
44	0xbf8029b8	-1.0012732
45	0xbed11452	-0.40835816
46	0x3efa363d	0.48869506
47	0xbf49112c	-0.7854183
48	0x3ec16dd2	0.377791
49	0xbc976902	-0.018482689
50	0x3ef1be33	0.47215423
51	0xbf032341	-0.5122567
52	0xbe6d91ab	-0.23200099
53	0x3f6c0d0a	0.92207396
54	0x3f1a3da8	0.6025033
55	0x3f1fe71f	0.6246204
56	0xbf133fa9	-0.5751901
57	0x3c88c6da	0.016696382
58	0x3f58f2aa	0.84745276
59	0xbe8fbfbb	-0.28075966
60	0x3f01c7ce	0.506955
61	0xbeb54154	-0.35401404
62	0x3d95e8a4	0.07319763
63	0x3efa4f41	0.4888859
64	0x3c8ddb2d	0.017316425
65	0x3e8b9eef	0.27269694
66	0x3d835179	0.06412024
67	0xbf6328dd	-0.8873423
68	0xbe354a65	-0.1770416
69	0xbe72b7ef	-0.23702978
70	0x3f45f868	0.7733216
71	0x3f2dcfbc	0.678951
72	0xbe439c9b	-0.19102709
73	0xbd36a219	-0.044588182
74	0x3de33089	0.11093242
75	0xbf44d004	-0.76879907
76	0xbddc3453	-0.107521676
77	0x3cfde7a5	0.030994246
78	0x3e9708ab	0.294988
79	0xbd399d7c	-0.045316204
80	0x3f4e511e	0.80592525
81	0x3ce8a44d	0.028398657
82	0xbeb3e95d	-0.3513898
83	0x3eded43f	0.43521306
84	0x3f664cef	0.8996114
85	0xbd12971b	-0.035788637
86	0x3e85268c	0.2600597
87	0xbe5891e1	-0.21149398
88	0x3f2d8e8b	0.6779563
89	0x3eea0d3e	0.45713228
90	0x3ddfc7d5	0.10926787
91	0xbe490925	-0.19632395
92	0x3f03c0eb	0.51466244
93	0x3dd2e958	0.10298413
94	0xbedc0717	-0.4297416
95	0x3f6ad400	0.91729736
96	0xbe4f8c97	-0.20268475
97	0xbe594310	-0.21216989
98	0x3d923d18	0.07140559
99	0xbe4c96bc	-0.19979376
100	0xbd3188fe	-0.043343537
101	0x3d9c4d82	0.07631971
102	0xbe33d778	-0.17562664
103	0x3dcb3d36	0.099237844
104	0x3d72f830	0.05931872
105	0x3da6ff62	0.08154179
106	0xbe3216e8	-0.1739155
107	0x3dc7731a	0.09738751
108	0x3de76fca	0.11300619
109	0x3cc4e3f7	0.024034483
110	0xbe60135b	-0.21882384
111	0x3c947f94	0.01812724
112	0xbdeab7e1	-0.11460853
113	0xbe2c9bfb	-0.16856377
114	0xbd7bae8e	-0.061445765
115	0x3dac7d74	0.08422366
116	0xbd8c875c	-0.06861755
117	0x3ceca40d	0.02888682
118	0x3da4f8f9	0.080553
119	0x3d858c68	0.06520921
120	0x3dec56a2	0.115399614
121	0xbd2fc0b4	-0.042908385
122	0xbe0ef199	-0.1395935
123	0xbe410fd7	-0.18853699
124	0xbc67f020	-0.014156371
125	0xbe26157e	-0.16219136
126	0xba898580	-0.0010492057
127	0xbde8fb81	-0.113760956
128	0x3f11af17	0.5690779
129	0xbe165ebe	-0.14684579
130	0x3f5b866d	0.8575199
131	0x3f3e0e96	0.74241006
132	0x3f3b029c	0.73050857
133	0x3f3dab43	0.7408945
134	0xbf7598f5	-0.9593652
135	0x3e25f954	0.16208392
136	0x3e0cc1b7	0.13745771
137	0xbe404598	-0.18776548
138	0x3ec52d09	0.38510922
139	0xbce8d908	-0.028423801
140	0x3c7f90cc	0.015598487
141	0x3e2add1a	0.16685906
142	0x3ee3f15d	0.44520083
143	0xbf46b24d	-0.77615815
144	0xbe9bb5a4	-0.30412018
145	0x3cd952f8	0.02652882
146	0x3ddf41c5	0.109012164
147	0x3f140c5c	0.5783136
148	0x3e069ea6	0.13146457
149	0x3f4352f6	0.76298463
150	0x3f1003eb	0.5625598
151	0x3ee6534c	0.44985425
152	0x3e7c4fbd	0.24639793
153	0x3e0c88a9	0.13724007
154	0xbe63e29a	-0.2225441
155	0xbea16217	-0.3152015
156	0x3f0e42ea	0.5557085
157	0xbed9a768	-0.42510533
158	0x3f0125dc	0.50448394
159	0x3e50bb13	0.20383863
160	0xbc01eae6	-0.007929539
161	0xbe721d74	-0.23644048
162	0xbd33913a	-0.04383967
163	0xbe8ecb07	-0.27889273
164	0xbd96d906	-0.07365613
165	0xbdfeca7b	-0.12440964
166	0xbdea2bf9	-0.11434168
167	0xbe4899cf	-0.19589923
168	0xbe11676d	-0.1419961
169	0xbdefb128	-0.11703712
170	0xbe440d92	-0.19145802
171	0xbdc4fccf	-0.09618532
172	0xbe67bb83	-0.22630124
173	0xbe343def	-0.17601751
174	0xbe79d718	-0.24398458
175	0xbe9eccc6	-0.31015605
176	0x3b991020	0.0046711117
177	0x3d59060d	0.052984286
178	0xbcb8c296	-0.022553723
179	0xbd23b74c	-0.039969727
180	0xbd2d6b65	-0.042338748
181	0xbe4d0d72	-0.2002466
182	0x3bb22c63	0.00543742
183	0xbb8221ff	-0.003971338
184	0xbe9398d7	-0.28827545
185	0xbe9cc9e2	-0.30622774
186	0xbda317af	-0.07963502
187	0xb91fb7b2	-0.00015231853
188	0xbe1e4b90	-0.15458512
189	0xbde040db	-0.1094987
190	0x3b74abc6	0.003733383
191	0xbe7c31f7	-0.24628435
192	0x3e2cb6a2	0.16866544
193	0x3ec07c2c	0.37594736
194	0xbf3006c1	-0.68760306
195	0xbf1b1527	-0.6057915
196	0xbe972aac	-0.29524744
197	0x3f1eed35	0.620807
198	0x3f241db1	0.64107805
199	0xbe9a61d9	-0.30152777
200	0xbf022f73	-0.5085365
201	0x3f2b69cd	0.66958314
202	0x3e98f4a9	0.2987416
203	0x3f71e10a	0.9448401
204	0x3efc1ae7	0.49239275
205	0x3f35ac87	0.7096638
206	0x3f9841a7	1.1895036
207	0xbee71943	-0.4513646
208	0x3f0ca1e2	0.54934514
209	0xbe825a2d	-0.25459424
210	0xbf3b83d8	-0.7324805
211	0xbedc14fc	-0.4298476
212	0xbe985ba1	-0.29757407
213	0x3e7d00be	0.24707314
214	0x3f48cd6e	0.7843846
215	0x3d947f0c	0.07250795
216	0x3ef7bd76	0.48386735
217	0xbf36ab3c	-0.7135503
218	0x3df987dc	0.12184116
219	0x3f7a5af6	0.97795045
220	0xbe081126	-0.13287792
221	0xbe1f35ef	-0.15547918
222	0x3f063a67	0.52432865
223	0x3f857867	1.0427369
224	0xbf26bc64	-0.6513121
225	0x3f69df3d	0.9135626
226	0xbe6cd050	-0.2312634
227	0x3f3fb548	0.7488599
228	0x3ef1a2ef	0.4719462
229	0x3d4889cb	0.048959535
230	0xbe2a3e8d	-0.16625424
231	0x3ed772f4	0.4207989
232	0xbfa46ee0	-1.2846336
233	0x3e36d057	0.17852913
234	0xbe05d89d	-0.13070913
235	0xbdf3168b	-0.11869534
236	0x3f61e44d	0.88238984
237	0xbf23ffdc	-0.64062285
238	0x3df39bf0	0.11894977
239	0x3f2f5279	0.6848522
240	0x3e4c6e41	0.19963934
241	0xbd6e400c	-0.05816655
242	0x3eaff500	0.34366608
243	0x3e9a4577	0.30131122
244	0xbf018b76	-0.50603426
245	0x3eaa3b0f	0.33248183
246	0xbf272102	-0.6528474
247	0x3f1268d2	0.57191193
248	0x3e130995	0.14359124
249	0x3cb03ee9	0.021514373
250	0xbdbc56ab	-0.09196218
251	0xbf17dcae	-0.59321105
252	0x3e336349	0.17518343
253	0xbebca59f	-0.3684511
254	0x3f8241f1	1.0176374
255	0xbf123ee2	-0.571272

l2.bias f4 [32]
0	0x3e2e741f	0.17036484
1	0x3eae6504	0.34061444
2	0x3e33b5e2	0.17549852
3	0xbdbd3bb2	-0.092399016
4	0xbe3fee99	-0.18743362
5	0xbe2b57f4	-0.1673277
6	0x3eeb07b6	0.4590432
7	0x3e939b46	0.28829402
8	0x3e607f8a	0.21923652
9	0xbde20f09	-0.11038024
10	0x3ea2e9da	0.3181904
11	0xbd1d5723	-0.03841318
12	0xbe33a202	-0.1754227
13	0x3d9b970d	0.0759717
14	0x3e6b38b8	0.22970855
15	0x3d812aeb	0.06307014
16	0x3ead377d	0.33831397
17	0xbd59abc0	-0.05314231
18	0x3e291638	0.16512382
19	0xbe4a9b24	-0.19785744
20	0x3e6d43fe	0.23170468
21	0x3e4f0570	0.20216918
22	0x3e7c692a	0.24649492
23	0x3dd20b62	0.10256077
24	0x3d8955e7	0.06705838
25	0xbd65d0ab	-0.056107204
26	0x3e8884d8	0.26663852
27	0x3e501013	0.20318632
28	0x3c1d80b3	0.009613204
29	0x3eb1d406	0.34732074
30	0x3e678276	0.2260836
31	0x3bd0b428	0.0063691325

l3.weight f4 [38, 32]
0	0xbdfb1485	-0.12259773
1	0xbdf8025d	-0.12109826
2	0x3e84f707	0.25969717
3	0x3df33b92	0.118765965
4	0xbee5f1a4	-0.4491092
5	0xbdc8b068	-0.09799272
6	0xbf82c79e	-1.0217168
7	0xc01b7ea0	-2.4296036
8	0xbe50297a	-0.20328322
9	0xbe3e5433	-0.18586807
10	0xbe90fa67	-0.28316042
11	0x3eb6bd12	0.35691124
12	0xbd38e7eb	-0.04514305
13	0xbe7048b1	-0.2346523
14	0xbde28410	-0.11060345
15	0x3e84ca4b	0.25935587
16	0xbcea3413	-0.028589284
17	0x3e322d00	0.17399979
18	0xbf515625	-0.8177207
19	0xbe10a318	-0.14124715
20	0xbe4a720a	-0.19770065
21	0xbf8f938b	-1.1216902
22	0x3e35ca5c	0.17752975
23	0xbeb60bbf	-0.35555837
24	0x3e025555	0.12727864
25	0xbdf2674e	-0.1183611
26	0xbf5db41b	-0.86602944
27	0x3e57a310	0.21058297
28	0xbf09e79c	-0.5386903
29	0xbf3d61e9	-0.73977524
30	0x3e88917c	0.26673496
31	0xbea9ad0a	-0.3313983
32	0xbebb434c	-0.3657478
33	0x3cc876a1	0.02447063
34	0xbdf16193	-0.11786189
35	0xbe095a00	-0.13413239
36	0xbe2df2a0	-0.16987085
37	0x3d285481	0.041096214
38	0xbf00f0ba	-0.5036732
39	0x3deb9163	0.1150234
40	0x3e2894ee	0.16463062
41	0x3e35d265	0.1775604
42	0xbeb9bc75	-0.36276594
43	0xbf2c8b2b	-0.67399853
44	0xbe759f0d	-0.23986454
45	0xbf05ed89	-0.52315575
46	0xbe46f89e	-0.19430777
47	0xbe9c10f9	-0.304817
48	0xbf914f27	-1.135228
49	0xbfc7344b	-1.5562834
50	0x3da7271a	0.08161755
51	0xbc92e956	-0.017933529
52	0x3e24bf91	0.16088702
53	0x3eec1929	0.46112946
54	0xbf0762f7	-0.52885383
55	0xbf8ee186	-1.1162574
56	0xbf9694a6	-1.1764114
57	0x3e8683ce	0.26272434
58	0x3ed468bb	0.41486153
59	0xbe1aac16	-0.15104708
60	0xbedd5c1d	-0.4323434
61	0xbf53f78c	-0.827996
62	0x3dd1e50b	0.102487646
63	0xbed692c2	-0.41908842
64	0xbf446742	-0.7672006
65	0xbf3735e5	-0.7156661
66	0xbd5bf5e4	-0.053701296
67	0x3dad93e0	0.084754705
68	0xbf1627d1	-0.58654505
69	0xbd471c49	-0.04861096
70	0xbdd9d4e5	-0.106363095
71	0x3d74acf1	0.059735242
72	0xbf5c36a6	-0.86020887
73	0x3cfb961b	0.030711224
74	0xbf60d5c8	-0.87826204
75	0xbf6aeb5f	-0.917654
76	0xbd285355	-0.041095097
77	0xbe5818c5	-0.21103199
78	0x3e3ffe28	0.18749297
79	0xbf07218f	-0.5278558
80	0x3ee276af	0.44231173
81	0xbdefe64a	-0.11713846
82	0xbeb6ab1c	-0.3567742
83	0xbdaba3bf	-0.083808415
84	0xbdb01880	-0.08598423
85	0xbfb02928	-1.376256
86	0x3e4ae365	0.19813307
87	0xbee62e41	-0.44957164
88	0x3caf16cc	0.021373175
89	0xbf1e0d7a	-0.61739314
90	0xbf2b31ab	-0.6687266
91	0xbe348be2	-0.17631486
92	0xbe591a59	-0.21201457
93	0xbf1407f5	-0.5782464
94	0xbe4439ea	-0.19162717
95	0xbf14881c	-0.58020186
96	0xbefcd9da	-0.49384958
97	0xbf0e676d	-0.55626565
98	0x3e95668e	0.29179806
99	0xbe4c6f95	-0.1996444
100	0xbeff8b07	-0.49910757
101	0x3d63ca90	0.0556131
102	0xbf73c40f	-0.95221037
103	0xbf689603	-0.908539
104	0xbdfa71b8	-0.122287214
105	0x3dbf4d14	0.09340873
106	0xbdab900e	-0.083770856
107	0x3d6200d1	0.05517656
108	0xbd0b7221	-0.03404439
109	0xbf1f4b1e	-0.62223995
110	0xbdce29b3	-0.10066547
111	0xbf150093	-0.58204
112	0xbf8dda14	-1.1082177
113	0xbee9a22d	-0.45631543
114	0x3ebcc122	0.368661
115	0xbd463b9a	-0.048396684
116	0x3f0756dc	0.5286691
117	0xbcaf8a08	-0.021428123
118	0x3cedeeb4	0.029044487
119	0xbd41377b	-0.04717205
120	0xbf2098a5	-0.6273292
121	0xbeb568ca	-0.3543151
122	0xbe5510f1	-0.20807244
123	0xbf33b428	-0.7019677
124	0x3e599484	0.2124806
125	0xbf252817	-0.645143
126	0x3ef6b3d6	0.4818408
127	0xbf370081	-0.71485144
128	0x3ed247e7	0.41070482
129	0xbf111057	-0.5666556
130	0xbf04e69f	-0.519144
131	0x3c3844ab	0.0112468405
132	0xbea9fe9a	-0.33202058
133	0x3d9277e3	0.07151773
134	0xbe92225a	-0.28541833
135	0xbfae4d06	-1.3617256
136	0xbf61b77f	-0.8817062
137	0x3eb5b9aa	0.35493213
138	0xba38d0b0	-0.000705014
139	0xbf89d01d	-1.0766636
140	0xbe56de16	-0.20983157
141	0xbecacdf3	-0.39610252
142	0xbeafb956	-0.34321088
143	0xbe045225	-0.1292196
144	0xbf2eee9d	-0.68332845
145	0xbe9eb230	-0.3099532
146	0xbec7dbcb	-0.39034876
147	0x3dba50bf	0.09097432
148	0xbeed459c	-0.4634217
149	0xbf7eac52	-0.9948169
150	0x3a3877fc	0.0007036922
151	0x3ed9ea77	0.42561695
152	0xbec344f4	-0.38138545
153	0x3e799128	0.24371779
154	0xbe4ee7c8	-0.20205605
155	0xbf19e91b	-0.60121316
156	0xbe085403	-0.13313298
157	0x3edecf1a	0.4351738
158	0x3d0d249e	0.03445875
159	0xbe448f23	-0.19195227
160	0xbeaa60fd	-0.3327712
161	0x3e480e00	0.1953659
162	0x3f03531e	0.512987
163	0xbcb19400	-0.021677017
164	0x3e29ac5d	0.16569658
165	0xbe47c8a6	-0.19510135
166	0x3e94bd58	0.29050708
167	0xbf536028	-0.825686
168	0xbf7e9259	-0.9944206
169	0x3d79dab9	0.060999606
170	0xbf430da5	-0.76192695
171	0xbf753d75	-0.957969
172	0xbccd8086	-0.025085699
173	0x3d77420d	0.060365725
174	0x3e03459a	0.1281952
175	0xbf0a8323	-0.5410635
176	0x3d523a95	0.0513254
177	0x3dfdf16c	0.12399563
178	0x3e1d3d5a	0.15355435
179	0xbd164723	-0.036688935
180	0xbf075f89	-0.5288015
181	0xbf8c3416	-1.0953395
182	0xbfa9b424	-1.32581
183	0x3e9e3385	0.3089868
184	0xbe6ec56e	-0.23317501
185	0xbf381776	-0.719108
186	0x3eb2973d	0.3488101
187	0x3e299c5f	0.16563557
188	0xbda0d25e	-0.07852624
189	0xbf945977	-1.1589803
190	0x3e839d29	0.2570584
191	0xbefdd9c2	-0.495802
192	0xbe1d7ab2	-0.15378836
193	0x3dfed79e	0.124434695
194	0xbeeac9d6	-0.45857114
195	0xbe30a6c2	-0.17251113
196	0xbe08c033	-0.13354568
197	0xbc5e8f4d	-0.01358397
198	0xbdce12c4	-0.10062173
199	0xbfd7e598	-1.6866941
200	0x3e834647	0.25639555
201	0xbf5ba406	-0.85797155
202	0xbef18df0	-0.47178602
203	0x3e47f2b8	0.19526184
204	0xbdc56788	-0.09638888
205	0x3e945b27	0.28975794
206	0xbfa6082a	-1.2971241
207	0xbcfc4520	-0.03079468
208	0x3e155a96	0.14585337
209	0xbf55b2c3	-0.83475894
210	0xbe49304d	-0.19647332
211	0xbd5291ca	-0.051408567
212	0x3eeec44f	0.46634147
213	0x3e847c84	0.25876248
214	0xbdc54afd	-0.096334435
215	0xbf0f0fec	-0.5588367
216	0xbe2aafcf	-0.16668628
217	0xbd275f7a	-0.040862538
218	0xbf80a4ea	-1.0050328
219	0x3de00a1f	0.109394304
220	0x3e9f6b4b	0.31136546
221	0xc0113a87	-2.2691972
222	0xbf1eb477	-0.6199412
223	0x3ec0841a	0.37600785
224	0x3dea226b	0.11432346
225	0x3d121fd4	0.035674885
226	0x3e9490db	0.29016766
227	0xbe44b0f9	-0.19208135
228	0x3ebb2d80	0.3655815
229	0xbdf83ae5	-0.12120608
230	0xbf86d7b9	-1.0534583
231	0xbfee7b9e	-1.8631475
232	0xbe094674	-0.13405782
233	0xbf47efbe	-0.7810019
234	0xbf200b75	-0.6251748
235	0xbe94f2f5	-0.29091612
236	0xbd37ca12	-0.044870444
237	0x3e9f4d6a	0.3111375
238	0xbf14acc5	-0.58076125
239	0x3ea72141	0.32642558
240	0x3e696816	0.22793612
241	0x3e8dbd6f	0.2768359
242	0xbf8e3715	-1.111056
243	0xbe694265	-0.22779234
244	0xbf68d222	-0.9094564
245	0xbf91cb0c	-1.139009
246	0xbf306938	-0.6891055
247	0x3e0b1657	0.1358274
248	0x3e917724	0.2841121
249	0xbecf0e80	-0.4044075
250	0xbf86bbed	-1.05261
251	0x3e57e903	0.2108498
252	0xbf0cbb94	-0.5497372
253	0xbf77f5b2	-0.96859276
254	0x3e6c3495	0.23066933
255	0x3e242c83	0.16032605

l3.bias f4 [38]
0	0xbe1ee346	-0.15516385
1	0xbd726275	-0.059175927
2	0xbdccf1d2	-0.10007061
3	0xbe048834	-0.12942582
4	0x3d32b9d4	0.04363425
5	0x3dab7107	0.08371168
6	0xbe9db351	-0.3080087
7	0xbed2bbbc	-0.41158855
8	0xbd948d4f	-0.07253515
9	0xbd84beda	-0.064817145
10	0xbdd2115c	-0.10257217
11	0xbe0eba56	-0.13938269
12	0xbe2e59ca	-0.1702644
13	0x3e4e17c9	0.20126261
14	0x3de7044a	0.11280115
15	0xbd32b49b	-0.04362927
16	0x3dc8f8cb	0.098130785
17	0x3e4aa890	0.19790864
18	0xbcfb6720	-0.030688822
19	0xbe0d6795	-0.13809045
20	0xbcc442d7	-0.023957653
21	0x3d99e632	0.075146094
22	0xbd9fa6f4	-0.07795516
23	0xbea10c62	-0.3145476
24	0xbd90cb98	-0.070700824
25	0xbe05ad64	-0.13054425
26	0x3d91cb27	0.07118826
27	0xbdad6d70	-0.08468139
28	0xbe6b51b2	-0.22980383
29	0x3da56430	0.0807575
30	0x3e29a486	0.16566667
31	0xbd15b886	-0.03655293
32	0x3e5e174e	0.21688578
33	0x3d619672	0.055075116
34	0x3dee7242	0.11642887
35	0xbde2a772	-0.11067094
36	0xbd93b055	-0.07211367
37	0xbe06dba0	-0.13169718
